calibration_methods/scaling/vector_calibrator.pt (torch, 26580 bytes, 2 tensors)

temperature f4 [3129]
000000 00 00 c0 3f 00 00 c0 3f 00 00 c0 3f 00 00 c0 3f
       1.5 1.5 1.5 1.5
000010 00 00 c0 3f 00 00 c0 3f 00 00 c0 3f 00 00 c0 3f
       1.5 1.5 1.5 1.5
000020 00 00 c0 3f 00 00 c0 3f 00 00 c0 3f 00 00 c0 3f
       1.5 1.5 1.5 1.5
000030 00 00 c0 3f 00 00 c0 3f 00 00 c0 3f 00 00 c0 3f
       1.5 1.5 1.5 1.5
000040 00 00 c0 3f 00 00 c0 3f 00 00 c0 3f 00 00 c0 3f
       1.5 1.5 1.5 1.5
000050 00 00 c0 3f 00 00 c0 3f 00 00 c0 3f 00 00 c0 3f
       1.5 1.5 1.5 1.5
000060 00 00 c0 3f 00 00 c0 3f 00 00 c0 3f 00 00 c0 3f
       1.5 1.5 1.5 1.5
000070 00 00 c0 3f 00 00 c0 3f 00 00 c0 3f 00 00 c0 3f
       1.5 1.5 1.5 1.5
000080 00 00 c0 3f 00 00 c0 3f 00 00 c0 3f 00 00 c0 3f
       1.5 1.5 1.5 1.5
000090 00 00 c0 3f 00 00 c0 3f 00 00 c0 3f 00 00 c0 3f
       1.5 1.5 1.5 1.5
0000a0 00 00 c0 3f 00 00 c0 3f 00 00 c0 3f 00 00 c0 3f
       1.5 1.5 1.5 1.5
0000b0 00 00 c0 3f 00 00 c0 3f 00 00 c0 3f 00 00 c0 3f
       1.5 1.5 1.5 1.5
0000c0 00 00 c0 3f 00 00 c0 3f 00 00 c0 3f 00 00 c0 3f
       1.5 1.5 1.5 1.5
0000d0 00 00 c0 3f 00 00 c0 3f 00 00 c0 3f 00 00 c0 3f
       1.5 1.5 1.5 1.5
0000e0 00 00 c0 3f 00 00 c0 3f 00 00 c0 3f 00 00 c0 3f
       1.5 1.5 1.5 1.5
0000f0 00 00 c0 3f 00 00 c0 3f 00 00 c0 3f 00 00 c0 3f
       1.5 1.5 1.5 1.5
000100 00 00 c0 3f 00 00 c0 3f 00 00 c0 3f 00 00 c0 3f
       1.5 1.5 1.5 1.5
000110 00 00 c0 3f 00 00 c0 3f 00 00 c0 3f 00 00 c0 3f
       1.5 1.5 1.5 1.5
000120 00 00 c0 3f 00 00 c0 3f 00 00 c0 3f 00 00 c0 3f
       1.5 1.5 1.5 1.5
000130 00 00 c0 3f 00 00 c0 3f 00 00 c0 3f 00 00 c0 3f
       1.5 1.5 1.5 1.5
000140 00 00 c0 3f 00 00 c0 3f 00 00 c0 3f 00 00 c0 3f
       1.5 1.5 1.5 1.5
000150 00 00 c0 3f 00 00 c0 3f 00 00 c0 3f 00 00 c0 3f
       1.5 1.5 1.5 1.5
000160 00 00 c0 3f 00 00 c0 3f 00 00 c0 3f 00 00 c0 3f
       1.5 1.5 1.5 1.5
000170 00 00 c0 3f 00 00 c0 3f 00 00 c0 3f 00 00 c0 3f
       1.5 1.5 1.5 1.5
000180 00 00 c0 3f 00 00 c0 3f 00 00 c0 3f 00 00 c0 3f
       1.5 1.5 1.5 1.5
000190 00 00 c0 3f 00 00 c0 3f 00 00 c0 3f 00 00 c0 3f
       1.5 1.5 1.5 1.5
0001a0 00 00 c0 3f 00 00 c0 3f 00 00 c0 3f 00 00 c0 3f
       1.5 1.5 1.5 1.5
0001b0 00 00 c0 3f 00 00 c0 3f 00 00 c0 3f 00 00 c0 3f
       1.5 1.5 1.5 1.5
0001c0 00 00 c0 3f 00 00 c0 3f 00 00 c0 3f 00 00 c0 3f
       1.5 1.5 1.5 1.5
0001d0 00 00 c0 3f 00 00 c0 3f 00 00 c0 3f 00 00 c0 3f
       1.5 1.5 1.5 1.5
0001e0 00 00 c0 3f 00 00 c0 3f 00 00 c0 3f 00 00 c0 3f
       1.5 1.5 1.5 1.5
0001f0 00 00 c0 3f 00 00 c0 3f 00 00 c0 3f 00 00 c0 3f
       1.5 1.5 1.5 1.5
000200 00 00 c0 3f 00 00 c0 3f 00 00 c0 3f 00 00 c0 3f
       1.5 1.5 1.5 1.5
000210 00 00 c0 3f 00 00 c0 3f 00 00 c0 3f 00 00 c0 3f
       1.5 1.5 1.5 1.5
000220 00 00 c0 3f 00 00 c0 3f 00 00 c0 3f 00 00 c0 3f
       1.5 1.5 1.5 1.5
000230 00 00 c0 3f 00 00 c0 3f 00 00 c0 3f 00 00 c0 3f
       1.5 1.5 1.5 1.5
000240 00 00 c0 3f 00 00 c0 3f 00 00 c0 3f 00 00 c0 3f
       1.5 1.5 1.5 1.5
000250 00 00 c0 3f 00 00 c0 3f 00 00 c0 3f 00 00 c0 3f
       1.5 1.5 1.5 1.5
000260 00 00 c0 3f 00 00 c0 3f 00 00 c0 3f 00 00 c0 3f
       1.5 1.5 1.5 1.5
000270 00 00 c0 3f 00 00 c0 3f 00 00 c0 3f 00 00 c0 3f
       1.5 1.5 1.5 1.5
000280 00 00 c0 3f 00 00 c0 3f 00 00 c0 3f 00 00 c0 3f
       1.5 1.5 1.5 1.5
000290 00 00 c0 3f 00 00 c0 3f 00 00 c0 3f 00 00 c0 3f
       1.5 1.5 1.5 1.5
0002a0 00 00 c0 3f 00 00 c0 3f 00 00 c0 3f 00 00 c0 3f
       1.5 1.5 1.5 1.5
0002b0 00 00 c0 3f 00 00 c0 3f 00 00 c0 3f 00 00 c0 3f
       1.5 1.5 1.5 1.5
0002c0 00 00 c0 3f 00 00 c0 3f 00 00 c0 3f 00 00 c0 3f
       1.5 1.5 1.5 1.5
0002d0 00 00 c0 3f 00 00 c0 3f 00 00 c0 3f 00 00 c0 3f
       1.5 1.5 1.5 1.5
0002e0 00 00 c0 3f 00 00 c0 3f 00 00 c0 3f 00 00 c0 3f
       1.5 1.5 1.5 1.5
0002f0 00 00 c0 3f 00 00 c0 3f 00 00 c0 3f 00 00 c0 3f
       1.5 1.5 1.5 1.5
000300 00 00 c0 3f 00 00 c0 3f 00 00 c0 3f 00 00 c0 3f
       1.5 1.5 1.5 1.5
000310 00 00 c0 3f 00 00 c0 3f 00 00 c0 3f 00 00 c0 3f
       1.5 1.5 1.5 1.5
000320 00 00 c0 3f 00 00 c0 3f 00 00 c0 3f 00 00 c0 3f
       1.5 1.5 1.5 1.5
000330 00 00 c0 3f 00 00 c0 3f 00 00 c0 3f 00 00 c0 3f
       1.5 1.5 1.5 1.5
000340 00 00 c0 3f 00 00 c0 3f 00 00 c0 3f 00 00 c0 3f
       1.5 1.5 1.5 1.5
000350 00 00 c0 3f 00 00 c0 3f 00 00 c0 3f 00 00 c0 3f
       1.5 1.5 1.5 1.5
000360 00 00 c0 3f 00 00 c0 3f 00 00 c0 3f 00 00 c0 3f
       1.5 1.5 1.5 1.5
000370 00 00 c0 3f 00 00 c0 3f 00 00 c0 3f 00 00 c0 3f
       1.5 1.5 1.5 1.5
000380 00 00 c0 3f 00 00 c0 3f 00 00 c0 3f 00 00 c0 3f
       1.5 1.5 1.5 1.5
000390 00 00 c0 3f 00 00 c0 3f 00 00 c0 3f 00 00 c0 3f
       1.5 1.5 1.5 1.5
0003a0 00 00 c0 3f 00 00 c0 3f 00 00 c0 3f 00 00 c0 3f
       1.5 1.5 1.5 1.5
0003b0 00 00 c0 3f 00 00 c0 3f 00 00 c0 3f 00 00 c0 3f
       1.5 1.5 1.5 1.5
0003c0 00 00 c0 3f 00 00 c0 3f 00 00 c0 3f 00 00 c0 3f
       1.5 1.5 1.5 1.5
0003d0 00 00 c0 3f 00 00 c0 3f 00 00 c0 3f 00 00 c0 3f
       1.5 1.5 1.5 1.5
0003e0 00 00 c0 3f 00 00 c0 3f 00 00 c0 3f 00 00 c0 3f
       1.5 1.5 1.5 1.5
0003f0 00 00 c0 3f 00 00 c0 3f 00 00 c0 3f 00 00 c0 3f
       1.5 1.5 1.5 1.5

bias f4 [3129]
000000 e8 2f aa be b8 ef 78 be 04 c8 da 3e a4 0b c3 be
       -0.33239675 -0.24310195 0.42730725 -0.3809482
000010 d8 0b 35 3f 32 87 47 bf 00 de 25 bb 16 1f 5f 3f
       0.707212 -0.77940667 -0.0025309324 0.8715681
000020 c0 86 0f be 28 8d 62 3e 42 28 6b 3f a2 bc 6c bf
       -0.14016247 0.2212416 0.91858304 -0.9247533
000030 1e 7f 39 3f 40 b3 2a 3f 00 9e 7b be bc d7 ee 3e
       0.7245959 0.66679764 -0.24571991 0.46648967
000040 c0 18 f3 bd b4 48 8e 3e b8 29 1b bf 04 1d 9b be
       -0.11869955 0.27789843 -0.6061053 -0.30295575
000050 7e ea 67 3f 60 37 1b bd 44 0f 1d 3f 88 25 bf 3e
       0.9059218 -0.037894607 0.6135142 0.37333322
000060 6c cc 52 bf 48 5f 6e 3f e0 4f 49 3d c0 95 70 3e
       -0.82343173 0.9311414 0.04914844 0.23494625
000070 c0 98 a1 3e e6 9d 13 3f 62 54 05 bf f8 38 7a 3e
       0.31561852 0.5766281 -0.5208188 0.24435794
000080 4c 99 33 bf d4 4d 6f 3f c8 45 6c 3e a0 74 10 be
       -0.7015579 0.9347813 0.23073494 -0.14106989
000090 80 60 0b 3f f4 e4 8f 3e e6 4a 08 bf c4 50 39 bf
       0.5444412 0.28104365 -0.53239286 -0.72388864
0000a0 00 ea 23 3e 60 a0 28 3e 08 d6 91 be fe 2d 6c bf
       0.16007233 0.16467428 -0.28483605 -0.9225768
0000b0 40 9f 98 3e 14 04 a8 3e 54 6c 84 be 90 64 92 3e
       0.29808998 0.3281561 -0.25863898 0.28592348
0000c0 60 3c b0 3d 7a c1 4f 3f 18 af 68 3f 84 48 3a 3f
       0.086052656 0.81154597 0.9089217 0.727669
0000d0 aa 5f 6a bf d8 1a 12 be f0 6c aa bd 10 f2 bd bd
       -0.9155222 -0.14268053 -0.083215594 -0.092746854
0000e0 5a a2 3a bf f0 77 1a 3e 40 c0 3d bf 70 f4 44 be
       -0.7290398 0.15084815 -0.74121475 -0.1923387
0000f0 c8 4a 1b bf 40 26 6b 3e c8 72 f1 be 80 8f 72 3d
       -0.6066098 0.2296381 -0.47157884 0.059218884
000100 be 70 29 3f 88 e7 97 3e 14 f1 0f 3f 6c b4 f7 be
       0.66187656 0.29668832 0.5622723 -0.48379838
000110 3e e8 7d bf 02 db 63 bf d2 06 1c bf 94 39 5b bf
       -0.991825 -0.89006054 -0.60947907 -0.8563473
000120 24 79 78 bf a2 bd 5b 3f 36 9b 07 bf ec 8a 90 be
       -0.97059846 0.8583623 -0.5297121 -0.2823099
000130 b8 29 39 3e 64 47 a5 3e 1e fe 6a 3f 2e 85 77 3f
       0.1808232 0.3228103 0.91794 0.9668759
000140 7c a3 e4 3e 40 f7 37 3e c0 b8 4b 3e 44 65 0c bf
       0.4465598 0.17965412 0.19894695 -0.5484202
000150 48 62 75 bf b0 60 39 3e 9e f1 1c bf 94 b8 0f bf
       -0.9585309 0.1810329 -0.6130618 -0.5614102
000160 c0 86 03 bf c0 57 69 3d 0c 6a 41 3f 20 f6 c3 3e
       -0.5137749 0.05696845 0.7555244 0.38273716
000170 e0 e0 7b 3d de d4 12 3f 54 1b f1 be d6 e5 26 3f
       0.061493754 0.5735606 -0.47091162 0.6519445
000180 74 0b 54 3f a8 31 0d 3f 08 16 a9 3e 20 98 62 be
       0.82829976 0.55153894 0.3302462 -0.22128344
000190 66 da 71 bf 70 c4 00 bf a0 92 6c bf 00 92 5c 3e
       -0.94473875 -0.5029974 -0.9241123 0.2154007
0001a0 d0 77 d9 3e a0 e4 3c bd 60 38 a0 3e 08 ee 34 bf
       0.42474222 -0.04611647 0.3129301 -0.70675707
0001b0 ec 64 3f bf 8a 78 4c bf b8 a3 4b be fc 06 29 3f
       -0.7476337 -0.7987143 -0.19886672 0.6602628
0001c0 94 a9 a2 be 50 30 12 be 80 cb 19 3c 2c 64 a0 be
       -0.31770003 -0.14276242 0.009386897 -0.31326425
0001d0 08 ba 61 3e 30 e8 1f be 2c a9 32 3f 30 4c 3c bf
       0.22043622 -0.15615916 0.69789386 -0.7355375
0001e0 68 43 3a 3e d0 d1 fb be e0 60 67 bf 5e fa 76 bf
       0.18189776 -0.49183512 -0.90382195 -0.9647578
0001f0 60 fe 65 3e 2e 93 2b 3f b0 8d 0c bf 90 a4 ee 3d
       0.22460318 0.67021453 -0.549037 0.116524816
000200 a0 ff 8f 3e 44 5f 50 bf 80 11 c4 3d b4 b8 3a bf
       0.28124714 -0.81395364 0.0957365 -0.72938085
000210 d8 84 0f be 4c 4f 7e bf ec a9 cd be a2 65 75 3f
       -0.1401552 -0.9933975 -0.40168703 0.95858204
000220 78 e8 75 3e 5a 82 46 bf 48 9c 1c 3f 7e 41 4f 3f
       0.24014461 -0.7754265 0.61175966 0.8095931
000230 78 53 7e 3f 1c 50 5e 3f 90 22 80 bd a2 9c 4e 3f
       0.99346113 0.8684099 -0.06256592 0.8070775
000240 48 7d 9f 3e 1c 9d c6 3e 70 a5 99 be 74 fe 27 bf
       0.3115027 0.3879174 -0.3000903 -0.6562264
000250 b0 65 36 bf 26 e0 01 bf a6 24 7b bf 00 ed 11 be
       -0.7124891 -0.5073265 -0.98102796 -0.14250565
000260 4e 24 4d 3f 46 9b 33 3f 04 6f dd be a0 e1 2a 3e
       0.8013352 0.70158803 -0.4324876 0.16687632
000270 c0 25 a1 bc 64 a8 54 bf 6a 0f 60 bf 7c 9c 70 3f
       -0.01967132 -0.83069444 -0.8752352 0.93988776
000280 a0 35 ac be 6a 6b 58 bf 80 70 5d bf 0c c9 ac 3e
       -0.33634663 -0.845389 -0.86499786 0.33747137
000290 18 50 b5 be 78 ac 13 be 60 62 b9 3e 24 19 d7 3e
       -0.3541267 -0.1442126 0.36207867 0.42011368
0002a0 c8 8a c3 be 70 20 be 3e 40 79 72 be 10 64 00 3e
       -0.3819182 0.37134123 -0.23679066 0.12538171
0002b0 b4 55 ed 3e f0 bf a0 be d4 c3 5e 3f 38 b2 26 3e
       0.4635445 -0.31396437 0.8701756 0.16278923
0002c0 de b1 25 bf d4 92 f8 3e 70 f9 76 3f ea 24 3f 3f
       -0.6472453 0.4854952 0.9647436 0.746657
0002d0 44 6b 1d bf 74 2c bc be aa 83 1c 3f 06 77 47 3f
       -0.614918 -0.36752665 0.61138403 0.7791599
0002e0 c0 4d 2a bf d8 85 dc 3e a0 f5 e6 3d d0 d0 50 3f
       -0.6652489 0.43070865 0.11277318 0.8156862
0002f0 68 56 f3 3e 20 06 1c be 4a 5e 34 bf 52 d8 26 3f
       0.4752686 -0.15236712 -0.70456374 0.6517383
000300 f0 a3 33 bf 40 9f 4e be 4c ac 39 bf 72 57 19 3f
       -0.70172024 -0.20177937 -0.7252853 0.59899056
000310 a0 fb 05 bd ee 5b 7f 3f 20 a7 86 be c8 76 28 3e
       -0.03271067 0.9974965 -0.2629938 0.16451561
000320 ec 66 c0 be 6c 59 82 be 20 8e 1f 3e 84 55 9e be
       -0.37578523 -0.25458848 0.1558156 -0.30924618
000330 50 12 f2 3e b8 d9 4e bf 64 0c 53 3f a0 75 c0 3e
       0.47279596 -0.8080096 0.8244078 0.3758974
000340 a0 a5 ee 3e 2c 13 f5 be 1c 6e 09 3f 8a 2a 6f bf
       0.46610737 -0.4786619 0.5368364 -0.93424284
000350 ec 1b 19 bf 16 fe 6d 3f 82 42 5f bf f8 89 11 3f
       -0.5980823 0.9296583 -0.8721086 0.5685115
000360 28 3a c6 3e 1c cb 3a bf 50 52 b6 3d 40 08 7b 3f
       0.38716245 -0.7296617 0.089024186 0.98059464
000370 88 a1 15 3f 90 87 26 be 68 72 75 3e 1c 29 9b be
       0.584496 -0.1626265 0.23969424 -0.303048
000380 88 87 1f 3f 9e 61 30 bf 38 b4 dc 3e 0c 17 fe 3e
       0.6231618 -0.6889895 0.43106246 0.49626958
000390 80 7c c0 3c ec 4e ad be c0 e2 ec bd cc 11 9b 3e
       0.023496866 -0.33849275 -0.11566687 0.30287015
0003a0 08 c6 22 3e 90 65 30 3e fc 94 d6 3e 6a ad 10 3f
       0.15895855 0.17226243 0.4191054 0.5651461
0003b0 e6 e9 67 bf 44 c3 b4 be 28 4a 6b 3e f0 96 37 3e
       -0.90591276 -0.35305226 0.22977507 0.17928672
0003c0 ac ba ed be ce f5 04 bf 78 fa b2 be 10 42 73 3f
       -0.46431482 -0.5193757 -0.34956717 0.9502268
0003d0 7e f1 12 bf 40 eb a4 3e 80 e9 d3 3d 2c 17 c1 3e
       -0.5739974 0.32210732 0.10347271 0.3771299
0003e0 9e 4a 59 3f c0 31 bb be cc e3 16 3f f8 ea 74 3f
       0.8487948 -0.36561394 0.5894134 0.95671034
0003f0 38 96 00 bf 44 88 b4 be f0 69 7a be 7c 49 6d 3f
       -0.50229216 -0.35260212 -0.24454474 0.92690253
